…
, no_cuda=False, log_freq=1, patience=10, num_workers=4, seed=42, weight_decay=0.0, adam_beta1=0.9, adam_beta2=0.999, gpu_id='0', variance=5, model_type='FlatRec', max_seq_length=50, hidden_size=64, num_hidden_layers=2, hidden_act='gelu', num_attention_heads=2, attention_probs_dropout_prob=0.5, hidden_dropout_prob=0.5, initializer_range=0.02, num_frequency_layers=2, sqrt_beta=2, cuda_condition=False, data_file='./data/ML-1M.txt', item_size=3417, checkpoint_path='output/FlatRec_ML-1M.pt', same_target_path='./data/ML-1M_same_target.npy')
2024-12-11 06:23:53,561 - FlatRecModel(
  (item_embeddings): Embedding(3417, 64, padding_idx=0)
  (LayerNorm): LayerNorm()
  (dropout): Dropout(p=0.5, inplace=False)
  (item_encoder): FlatRecEncoder(
    (frequency_layers): ModuleList(
      (0-1): 2 x FrequencyLayer(
        (out_dropout): Dropout(p=0.5, inplace=False)
        (LayerNorm): LayerNorm()
      )
    )
    (attention_blocks): ModuleList(
      (0-1): 2 x FlatRecAttentionBlock(
        (layer): FlatRecAttentionLayer(
          (attention_layer): MultiHeadAttention(
            (query): Linear(in_features=64, out_features=64, bias=True)
            (key): Linear(in_features=64, out_features=64, bias=True)
            (value): Linear(in_features=64, out_features=64, bias=True)
            (softmax): Softmax(dim=-1)
            (attn_dropout): Dropout(p=0.5, inplace=False)
            (dense): Linear(in_features=64, out_features=64, bias=True)
            (LayerNorm): LayerNorm((64,), eps=1e-12, elementwise_affine=True)
            (out_dropout): Dropout(p=0.5, inplace=False)
          )
        )
        (feed_forward): FeedForward(
          (dense_1): Linear(in_features=64, out_features=256, bias=True)
          (dense_2): Linear(in_features=256, out_features=64, bias=True)
          (LayerNorm): LayerNorm()
          (dropout): Dropout(p=0.5, inplace=False)
        )
      )
    )
  )
)
2024-12-11 06:23:59,255 - Total Parameters: 325696
